Models/LSTM-cantilever-beam-wt-06232023-checkpoint.pt (torch, 177788 bytes, 18 tensors)

lstm_1.weight_ih_l0 f4 [100, 5]
00000000: 3d7d fabd 64e5 f3bd 9854 563d ee36 4bbd
00000010: e2a0 b4bc 2f06 8bbd 3cf2 d83c f629 3bbd
00000020: 2321 e53d 9fc3 6abd ea06 f2bd d29f 8b3c
00000030: 8ef5 7a3d d852 debd 2469 24be 138c 293d
00000040: ff95 52bd 579b 2dbe 18fb 843d 1cbc 793e
00000050: be70 8fbd 1d1f 443e a484 c9bd 1303 64bd
00000060: 62dd 083d df9e 323e bea8 b73d ad6a 8bbe
00000070: 65a6 5f3e 496f 243e 4cc6 953d 913f 88bd
00000080: ed38 9cbd 7e1a 613e 09d3 773e 7e1e b23d
00000090: 546d d93d 880d 323e 1755 20bd d1b1 01be
000000a0: 9c21 e5bc ff01 903e 3e05 4dbe ca28 0e3d
000000b0: 474b f83e a947 753d 0db2 943d eff8 633e
000000c0: a331 8fbe 77f1 9e3d 34e2 fabc c0d9 01be
000000d0: 58af b6bc e746 94be c5f6 75be b9e0 2abe
000000e0: 2f1c 053d 12b9 1c3e 7cc1 81be 45ce ee3d
000000f0: 5dbe 09bf 1193 d2be 2e73 cdbd 1e56 3e3e
00000100: 9fd2 09bd 22d5 b53e 6c0d 9a3d a909 323e
00000110: be9a 333d bf39 ccbd 2e86 2e3e 335b 89be
00000120: 5815 acbd 896e 06be df33 223d 9527 9c3d
00000130: 3d7b d63c 88ce 30be d60c 6fbd 5e13 16be
00000140: 5b8a fcbd 0873 a53d b826 3f3e f727 4e3e
00000150: c97f fb3d acb1 75be e0a5 ad3e c15e 373e
00000160: a627 fdbc 176a 27be 8215 813b 2c8d 8b3d
00000170: 0cb5 9e3d 5245 5c3d 3093 783d 74d7 5ebd
00000180: 2bbf 6ebe 3173 d13d b174 6ebd ae3d 1c3e
00000190: 23f3 37bd bbff 28bd 2ecd 06bd e5bf 99bd
000001a0: cc04 973c b66f d0bd a29e a1bd d868 0f3e
000001b0: c28d 023d c82c 1abe 8aea 36be f32a e9bc
000001c0: 046d d0bd 41cc b03b 2983 23be a01d bebd
000001d0: 4f06 09bd 2c3a a7bd a9c5 c0bd f57f f63c
000001e0: 1715 b93c 3eb5 2c3e 6366 d73d 7498 313d
000001f0: d0d9 9cbc 1ee1 1bbd 66e0 943d f0b8 92bd
00000200: 687c dabd 439b fe3d bd92 e0bd ab1b 4bbc
00000210: 746c 113e 0026 4fbd 4237 1b3e a27c 463c
00000220: 7deb 433e 5bf2 ad3d 1378 c43d 7771 90bd
00000230: 539b 7ebd 8783 5d3e 495f 8cbe ab41 a93e
00000240: 96c1 51bc 4e7b b0bd 8b15 1a3d abd2 f83d
00000250: 65e7 a23d e21d 14bd 1529 373e 97da 11bf
00000260: ed59 e1be 30ce 5a3d bc1b c7bc 9eec 353e
00000270: 14e5 9abe 3f15 883c 8a53 1bbe 3486 90be
00000280: 976d 3fbe c5d7 463d c3e5 d73c 9010 f5bc
00000290: ac4b 04bd 8416 a13e f22d 6a3e eded 2f3e
000002a0: 7d06 88bd 19ed 39be a6d0 9cbe 433f 153d
000002b0: 5f24 b53d e257 2f3e 30cb eabd f271 22be
000002c0: 4597 1c3e 3017 bf3d 6096 b43d 6f9c 48be
000002d0: 9614 113d 205c c73e 9e0a e83e b511 5c3e
000002e0: 8594 393e aa50 b1bd 8d95 a7bd 4b13 c1bd
000002f0: eec6 393e 44d8 7b3e 1b25 bc3d 820c 76be
00000300: 656c 16be dce5 a73d e962 d239 bbca 553e
00000310: 8a3e 3dbc 5047 543d 7dd0 77bd f50d 0abe
00000320: 0761 af3d 8286 11be cc6d 643e 75bb 00be
00000330: b3e7 693e 6214 09be 79c1 d2bc 7c2b 21be
00000340: f890 0c3e 8600 ac3d 964d 263f 22d1 92be
00000350: 2b66 003e b209 bfbd d117 b6bc 8164 2d3e
00000360: f0ab 623e 11e7 ea3d 88c4 d03d bd9a 0c3c
00000370: 0845 b73c f780 da3c 521e dc3d 2778 e2bd
00000380: cd09 50be 13fa a03d a287 2e3e ad93 08be
00000390: 3994 04be 8829 d43d 675a 53bd 168e bebe
000003a0: 2813 b3be 1b55 c8bd 0e25 c43e b115 f4bd
000003b0: 7b8a 383d 85c6 19bd 4ad4 173c 6af4 2a3c
000003c0: 1f5d bc3d 5902 75bb 2438 963d 8065 c1bd
000003d0: 32e4 aebd 78d8 99bc ad09 26be 1a41 e13d
000003e0: 86a8 3d3e a385 98be a7b6 123e 0ad5 243c
000003f0: ba86 16be d36e 38bd 1f43 01be 30b0 8cbd
-0.122309186 -0.11908987 0.05232677 -0.049612932 -0.022049371 -0.06788289 0.026482694 -0.045694314
0.11187961 -0.057315465 -0.11817725 0.017043982 0.061269335 -0.10855645 -0.16055733 0.04139335
-0.05141258 -0.16953789 0.06493205 0.24388164 -0.07003926 0.19152494 -0.09839752 -0.055666994
0.033414252 0.17443417 0.08967732 -0.27229825 0.21840818 0.16058077 0.07313213 -0.06652749
-0.07628045 0.21982762 0.24201597 0.08697222 0.10616556 0.17387974 -0.039143648 -0.12665488
-0.027970128 0.28126523 -0.20021531 0.03470687 0.48494932 0.059882794 0.07260523 0.2226293
-0.27967557 0.077608995 -0.03062544 -0.12680721 -0.022300407 -0.28960344 -0.24019916 -0.16687287
0.03249758 0.15304974 -0.2534293 0.116604365 -0.53806096 -0.41127828 -0.100317344 0.18587539
-0.03364813 0.3551417 0.07522091 0.17386498 0.043848746 -0.09971952 0.17043373 -0.26827392
-0.084025085 -0.13128103 0.03960025 0.07624737 0.026181811 -0.17266285 -0.05836185 -0.14655825
-0.12331077 0.08078581 0.18667114 0.20132433 0.122802325 -0.23993558 0.33915615 0.1790724
-0.030902695 -0.16349064 0.0039393315 0.06814036 0.07749376 0.053777047 0.060687244 -0.05440469
-0.23315112 0.10227049 -0.058216754 0.15257904 -0.044909608 -0.04125951 -0.03291052 -0.07507304
0.018434905 -0.10177557 -0.07891585 0.14004838 0.031873472 -0.15056145 -0.17862907 -0.028462863
-0.10177043 0.0053954427 -0.15968002 -0.09282994 -0.033453282 -0.08165392 -0.09412701 0.030090312
0.022593064 0.16866013 0.105175756 0.04335828 -0.01914683 -0.038056485 0.07269363 -0.0716418
-0.1066826 0.124319576 -0.10965488 -0.012396733 0.14201528 -0.05057335 0.15157798 0.012114676
0.191328 0.08493491 0.09593215 -0.07052892 -0.062159847 0.21632205 -0.27416447 0.33057913
-0.012802502 -0.086172685 0.0376182 0.12149557 0.07954291 -0.03616131 0.17886765 -0.56974167
-0.4401392 0.053419292 -0.024305217 0.17766044 -0.30252898 0.016611693 -0.15168586 -0.2822739
-0.18694149 0.048545618 0.026354676 -0.029915124 -0.03229873 0.3146249 0.22869089 0.17180605
-0.066418625 -0.18156852 -0.30627936 0.036437284 0.08844828 0.17123368 -0.11464536 -0.15863779
0.1529208 0.093305945 0.08817744 -0.19590925 0.035420023 0.38937473 0.453206 0.2149113
0.18123062 -0.086579636 -0.081828214 -0.09427508 0.18142292 0.24594218 0.09186765 -0.24028209
-0.14689787 0.08198139 0.00040128015 0.20878117 -0.011550555 0.05182582 -0.060501564 -0.13481887
0.08563428 -0.14211467 0.22307509 -0.12571509 0.22842292 -0.13386682 -0.02572702 -0.15739244
0.13727176 0.08398537 0.64962137 -0.2867518 0.12538974 -0.09328021 -0.022228153 0.1693287
0.22135901 0.11469854 0.10193735 0.008581814 0.022371784 0.026672823 0.10747971 -0.110580735
-0.20316239 0.07860198 0.17043927 -0.13337584 -0.12947167 0.10359484 -0.051599886 -0.37217778
-0.34975553 -0.097818576 0.3830952 -0.119182 0.04505394 -0.03754284 0.009266922 0.010434249
0.09197449 -0.0037385433 0.07334927 -0.09443188 -0.085396186 -0.018779978 -0.16214629 0.10998745
0.18521318 -0.29789457 0.14327489 0.010060558 -0.14699832 -0.045027565 -0.12623261 -0.068695426

lstm_1.weight_hh_l0 f4 [100, 25]
00000000: 4fd9 423d 2474 713e 9df6 69bd 5b02 8bbe
00000010: c743 ed3d 9e4a 273e 9c79 eabd ef28 80be
00000020: 3b7a 2b3e 01b3 343e c89b 3d3e 3496 a8be
00000030: aaa8 983e 848e c1bb 41f0 93be 6d8c cbbc
00000040: 3f32 0cbe 0c03 66be 7b7d a5be 61ba 4c3e
00000050: 4144 b3be a6cf cc3e d53d 11bd c218 49bd
00000060: c3c6 e43e 1955 20bc 3b9b cfbd 547e bdbe
00000070: 77f0 03be fcda deb9 1dc4 4c3e 7105 5cbe
00000080: 68ae 13bd c788 d33e 1807 bc3e 5ba1 a83e
00000090: 9a1d 42be 3c5c 463d b4a3 51be 0b25 49be
000000a0: 28c4 e33d aa36 49be ed11 97be 70ba c7be
000000b0: dc77 733e fb38 d2bd 261b ad3d a8bd b3be
000000c0: e0e3 b0bd 6940 803e 87bb bb3c b392 373d
000000d0: 30ad 09bf 7cf8 92be 0c03 b3be ccb9 dfbc
000000e0: 5407 72be c774 c1bd e934 2dbd 548b 5d3e
000000f0: be36 5b3e 8d09 2abc 50f2 8b3c c9e7 393e
00000100: 2a85 18be 4115 b03d b8bb 19be 50e8 3bbe
00000110: 2ded 56be 4dc1 a63e a6e1 bcbe 70f8 49bd
00000120: a5c2 80be a665 9ebe be98 82bc 659b 6b3e
00000130: 5f5d c3be 905e eb3c c080 96bc b249 4c3e
00000140: 3214 883e 6f2b a83c b27d 32bd dad8 bc3e
00000150: 31db 053e 0281 f2bc 5b53 29be 4eb6 96bd
00000160: 51ea 0cbc f676 abbd cc44 9d3d 64e8 62bd
00000170: 0ee5 cbbe cf92 7fbd 30d6 143e b79f 38bf
00000180: da0d ef3d c65d 49be 132d b9be a086 533d
00000190: eacd 5b3e e074 0a3f 3d47 873d 1e49 16bf
000001a0: 82a5 29be c21d 393f f122 96be 3c0d 4ebe
000001b0: 3e39 003f 30dd 023f c0ac 773d 4eab 8ebe
000001c0: c960 163f df32 c8bd 879e 12bf 219c 113c
000001d0: 1291 34bf 6307 20bf 4469 bcbe 1bf9 ab3e
000001e0: 6616 df3a d0a9 353f 52bc 42be a792 92be
000001f0: bb73 293f fda7 d5bc f08a a4be dcee ec3c
00000200: c2b4 92bd 7c88 dc3d 4587 873b 4594 98be
00000210: 3a6f 14be 785c 0b3e 7632 e2bc e920 a03e
00000220: 61c3 803d e2bb 3cbe 11ef 24be 181e e8bd
00000230: 104a 243e 6b54 b03c 07c7 76bd 8130 0d3e
00000240: a2b4 afbd 02ae e93d 6a27 57bd eaa0 3a3e
00000250: 55b8 94be c49f f53d 1b4f d5bd fc85 b3bc
00000260: 7fdc 4e3e 9956 d1be 01b1 da3d 5b81 923d
00000270: 176e a6bd b8f1 923e d8ae df3d d285 c23e
00000280: d771 c6bd 3a3f c0be da61 223e bce5 a2bd
00000290: 6867 15be 5502 b53d 50df 4dbe 3e59 60be
000002a0: d13e 0cbe 475e 983e c6ef d4bd 79f7 163d
000002b0: fdb3 23be 2958 903c 0490 b13e d84a 0ebe
000002c0: e6b1 123d 81c4 7bbd 0e11 b4bc 532e 913e
000002d0: a435 3d3e fb99 3abe b896 adbd 9ef7 873e
000002e0: 7776 063e 18f0 af3e fa3c a53d 4da8 e13d
000002f0: d46c fb3d 38aa 7abc b765 773d 391d 013e
00000300: eb3c 8cbd fc06 56ba c038 683e e608 02be
00000310: 2503 713e 1a2b 6e3e 2d8d c0bd 3bdc 413c
00000320: e9c5 bdbc 3515 b73e 154e c23d fc0d 8fbe
00000330: 4ffe bfbe 807c 353e 8192 d0bc a204 893e
00000340: ae7e 65be d8fd 6c3e 2447 2a3e 2795 f0bd
00000350: ae79 253e 8c6b e7bc 08ce 3fbd 0c39 a9be
00000360: 75f3 abbe 0422 05bc 7ab9 bdbe 09bb 13be
00000370: 517e 03bf 3622 b03d 932c ddbe 78cc 58bd
00000380: 2c12 4abd 66f2 3bbd e0ac 78be 850f 4dbd
00000390: 2aa6 92be cde6 96bd b05c 413e a1bc 183e
000003a0: 56aa 853e f9a5 423e 56ea 16bd 1348 edbc
000003b0: c801 92bd 3ce8 1f3d 4a17 183c ae9c 8cbe
000003c0: 4447 9bbd 87df d8bd 5813 94be a87b cd3e
000003d0: f4c5 c5bc 1ff7 00bf 6b81 bc3c 2125 16bc
000003e0: 8764 fd3e 468a fb3d f25a 40be f26e 623d
000003f0: 09ea 84be 7277 d43d 66ef d13c 6a60 f93c
0.047570523 0.2357946 -0.057119954 -0.27150235 0.11585193 0.16337058 -0.114489764 -0.2503123
0.16745846 0.1764641 0.18516457 -0.32927096 0.2981618 -0.0059068818 -0.28894237 -0.024847234
-0.13691042 -0.224621 -0.32322297 0.19992973 -0.3501301 0.40002173 -0.03545936 -0.049095877
0.44682893 -0.009785914 -0.1013703 -0.37010443 -0.12884699 -0.00042506296 0.19996686 -0.2148645
-0.036055 0.4131529 0.36724162 0.32935604 -0.18956605 0.048427805 -0.20472604 -0.19643037
0.11121398 -0.19649759 -0.29505864 -0.39009428 0.23776191 -0.102647744 0.08452444 -0.35105634
-0.08637214 0.2504914 0.022916568 0.044817638 -0.5377989 -0.28705204 -0.34963262 -0.027310275
-0.23635608 -0.09446102 -0.042286787 0.2163518 0.21407601 -0.010378254 0.017083317 0.18154825
-0.14894548 0.08597804 -0.15013015 -0.18350339 -0.20988913 0.32569352 -0.36890906 -0.049309194
-0.25148502 -0.30936927 -0.015941974 0.23008497 -0.38157174 0.028731614 -0.01837194 0.19949988
0.26577908 0.020528523 -0.043576904 0.36884195 0.13071896 -0.029602531 -0.16535704 -0.073589906
-0.008600787 -0.083722994 0.076791376 -0.055397406 -0.39823192 -0.062395867 0.14534831 -0.72118706
0.11672564 -0.19664678 -0.361672 0.05164206 0.21465269 0.5408459 0.066053845 -0.5870532
-0.16567042 0.7231103 -0.29323533 -0.20122236 0.50087345 0.51118755 0.06046748 -0.2786507
0.5874143 -0.09775328 -0.57273144 0.008887322 -0.7053386 -0.6251127 -0.3679906 0.3358849
0.0017020225 0.7096224 -0.19017151 -0.28627512 0.66192216 -0.02608108 -0.3213725 0.02892249
-0.07163383 0.1076822 0.0041359984 -0.2980062 -0.14495555 0.13609493 -0.027611952 0.31275108
0.062872656 -0.18431047 -0.16106822 -0.11333865 0.16043878 0.021524629 -0.0602484 0.13788034
-0.08579375 0.114101425 -0.052527823 0.18225446 -0.29046884 0.119933635 -0.10415479 -0.021914475
0.202013 -0.4088638 0.10678292 0.07153579 -0.08126467 0.28700042 0.10922021 0.37992722
-0.09689682 -0.37548238 0.1585764 -0.079539746 -0.14590228 0.088383354 -0.20104718 -0.21909043
-0.13695838 0.29759428 -0.10397296 0.036857102 -0.15986629 0.017620163 0.34680188 -0.13895738
0.03581419 -0.061466698 -0.021980789 0.28355655 0.18477494 -0.18222801 -0.08476013 0.26556104
0.13131128 0.34362864 0.08068271 0.11018429 0.12276617 -0.015299372 0.060399737 0.12608804
-0.06847557 -0.0008164493 0.22677898 -0.12698707 0.23536356 0.2325863 -0.09401927 0.011832292
-0.02316566 0.35758367 0.09487549 -0.27940357 -0.3749871 0.17723274 -0.025460484 0.26761347
-0.22411606 0.23143709 0.166287 -0.117471986 0.16159698 -0.028249525 -0.046827346 -0.33051336
-0.3358418 -0.008125786 -0.3705557 -0.14426817 -0.5136462 0.08600275 -0.4319807 -0.05292937
-0.049333736 -0.045885466 -0.24284697 -0.05006363 -0.28642398 -0.073682405 0.18883014 0.14915706
0.26106519 0.19008626 -0.036844574 -0.028965032 -0.07129246 0.039039835 0.009282896 -0.27463287
-0.07581952 -0.105895095 -0.28921008 0.40133405 -0.024142243 -0.50377077 0.02301093 -0.009164126
0.4949076 0.12282233 -0.18784693 0.055281587 -0.25959805 0.10374345 0.02562685 0.030441482

lstm_1.bias_ih_l0 f4 [100]
00000000: b56e ad3e b104 ad3e 1ee3 2d3e f202 573e
00000010: 394a dd3e 59e5 a33c 52af b3bd a046 d13d
00000020: fa6a cf3d d3de 5f3e 6207 ce3a 6bed 55bb
00000030: df4c b0bd 778b e9bb 4258 473e ccb0 613d
00000040: ceb0 533e c4b4 403e 455f 953d 27a6 b83e
00000050: 0d85 873e 8125 193c f17b 543e 2d5d c63d
00000060: 0b60 833e e25f cd3c cfc7 b73e b010 0cbe
00000070: bdc2 643d 000c 9dbc 7b24 2dbe ba8b da3d
00000080: 1e53 2b3e 552d 9ebd ba19 68bd faa8 973d
00000090: 7bda 713d 4ede 1f3e 39fc 3c3e 4544 693e
000000a0: b020 c7bd 1baa e9bd 7df9 3d3e 7ac5 b03e
000000b0: 007f c03d a8fd 173e 5cbf 0d3d f6fe 7dbd
000000c0: 8cf0 e03e 1449 4abe 10aa 57bd 96ed 043e
000000d0: 64dc de3d 6b3a 0a3d a0bc cf3c 4539 623e
000000e0: 5d64 2f3d 1b18 f03d 3b57 303e 3a3f 203e
000000f0: 4f41 273c 9507 cfbd a911 243d 2331 0bbe
00000100: 2072 acbc 4137 3d3d d06d 07be b350 02be
00000110: 0df3 eebc 6078 8b3c 502c 0ebe fcea 723e
00000120: 0c7c b2bd f786 18be 9333 74bc 6f54 4d3e
00000130: 2485 333f ffe3 123f 8f51 c33d 35da 0a3f
00000140: ee07 7c3e 53bb d33e a2fd dd3e c172 563e
00000150: 9f9d 9ebd 2ff6 c63c ffdd 4c3d 16a7 ddbd
00000160: 4e1e 57bd f1b5 673e 0460 863e 990f 9d3e
00000170: 5b80 f43b fe72 c53e 4661 263f 698a 263e
00000180: c01e 583e 2778 f43e 24cd 0e3f 6dfa 343e
0.33873525 0.33792642 0.1698117 0.20997217 0.4322069 0.020006822 -0.08773674 0.10218549
0.10127826 0.21862344 0.0015718753 -0.0032642733 -0.08608412 -0.007127221 0.19467261 0.055100247
0.20672914 0.18818957 0.07293562 0.36064264 0.26468697 0.0093473205 0.20750405 0.096857406
0.25659212 0.025070135 0.3589463 -0.13678241 0.05584978 -0.019170761 -0.16908447 0.10671182
0.16730925 -0.0772349 -0.05666516 0.074052766 0.05904625 0.15612146 0.1845559 0.22779949
-0.097230315 -0.11409398 0.18552203 0.34525663 0.09399223 0.14842856 0.034606323 -0.062010728
0.43933523 -0.1975444 -0.05265242 0.12981257 0.1088188 0.033747118 0.025358498 0.22092159
0.042820323 0.11723348 0.17220776 0.15649119 0.010208442 -0.10108868 0.040055905 -0.13592963
-0.021050513 0.046195272 -0.13225484 -0.12726097 -0.02916863 0.017025173 -0.13884091 0.23722452
-0.08715066 -0.14895235 -0.014904874 0.2005174 0.7012503 0.57379144 0.095370404 0.5423921
0.246124 0.41353855 0.4335757 0.20942213 -0.077449076 0.024287311 0.0500164 -0.10822885
-0.052519135 0.22627999 0.2624513 0.30675963 0.00746159 0.38564295 0.6499218 0.16263737
0.2110548 0.4774792 0.5578177 0.17673655

lstm_1.bias_hh_l0 f4 [100]
00000000: b379 9d3e 7aa4 1b3e 0e18 a13d cdf7 1c3e
00000010: 5789 7d3e ab03 6dbd 81f6 bf3d e12b 953d
00000020: d26c 473e 3f40 8dbd 594d 83bd 45db f03d
00000030: 7831 b03d ace5 113e e5c1 81bd 5869 183d
00000040: 3a2d ba3e f9b0 563e a8d0 973e b803 b93e
00000050: 6a46 263e 588e e6bc 032c 553e 7380 9ebd
00000060: e497 653d 4737 193c afa2 633d d839 c7bd
00000070: 281b 463e dda6 bd3b b3a5 933c ae45 a53d
00000080: d13e 853b 16de 34be 6cb2 203d f24b ba3e
00000090: 1eed 71be 667c 49be 13d6 173e d11f 5d3e
000000a0: cb2e 443e 611e 5a3e 2c23 39bd 059a 4d3c
000000b0: f483 6a3c 7b07 2ebd c37a cbbd 3bb3 3b3e
000000c0: 0093 be3e fa6c 4bbe 9592 2c3d b591 57be
000000d0: 325e ab3d d358 b73c eec7 193d f0e2 853e
000000e0: faa7 0bbe 58ae 20be cec0 de3d 7e4f 583e
000000f0: 5c28 babd 46e1 1dbe 676d 2d3e a996 2dbe
00000100: d4a7 09be 9b6e 8a3d c0fb 823d 7ecf 9bbe
00000110: e6ec 08bb 9651 193e 52cd e93d 10b7 963d
00000120: f137 15bc f181 153e c49d 243e 5841 083f
00000130: 6c4c 293f b918 173f 24cb 753d 2387 453f
00000140: ebfa 95bd 6f14 8d3e 194d bf3e 50c9 f83e
00000150: 6508 d43d b222 a33e 883b 753e 3e04 cdbd
00000160: 64da 233e 3263 7b3e 2ece 933e 4af7 8d3d
00000170: e3a4 003e d560 8c3e 3686 173f e352 cf3e
00000180: 797a 70bc 1082 173f bf32 213f cf83 0c3e
0.30756912 0.15199462 0.07865916 0.15328903 0.24759422 -0.057864826 0.09373189 0.0728376
0.19475105 -0.068970196 -0.06411237 0.11760572 0.086031854 0.14247769 -0.063358106 0.03720984
0.3636263 0.20965947 0.2965138 0.3613565 0.16237798 -0.028144047 0.2081757 -0.077393435
0.056053057 0.009351558 0.05557507 -0.0972783 0.19346297 0.005787714 0.018023347 0.08069931
0.004066326 -0.17662844 0.039232656 0.36386067 -0.2362561 -0.1967636 0.14827757 0.21594168
0.19158475 0.21300651 -0.04519956 0.012548928 0.014313687 -0.042487603 -0.09935524 0.1833009
0.37221527 -0.1986579 0.04213198 -0.21051677 0.08367576 0.022381222 0.037544183 0.26149702
-0.13638297 -0.15691507 0.10876618 0.21124074 -0.09089729 -0.15417966 0.16936265 -0.16952004
-0.13442928 0.067593776 0.06395674 -0.3043174 -0.0020893156 0.14972529 0.11416115 0.07359135
-0.009107576 0.1460035 0.16075808 0.53224707 0.66132236 0.590221 0.060008183 0.7715933
-0.073232494 0.27554652 0.37363508 0.4859109 0.10353164 0.31862408 0.2394849 -0.10010575
0.16001278 0.24549559 0.2886824 0.06931932 0.125629 0.27417627 0.59189165 0.40492925
-0.014677637 0.59182835 0.6296806 0.13722156

linear.weight f4 [10, 25]
00000000: a930 f13e 5506 7bbf 798d 8cbe 9c91 b13e
00000010: 9d18 afbe 64a1 d4bc ea94 1ebf 9bdb de3e
00000020: 1f6b 1d3c cacc 57be 92ef 8abe eb8b 49bd
00000030: c9e2 863e f622 003d 2b2f 07be bf58 233c
00000040: 7fce d53e b2b4 bdbe 23bd 1cbf 6bbe d0be
00000050: 9a14 de3d 792d 17be 6825 1a3e 67f3 08bf
00000060: d17e 053d 6be5 8cbd 09da 333e 1f83 96be
00000070: 8c80 37be b95e 07bd 6d04 d53d a710 9e3d
00000080: c126 fb3d 65b4 c9be 9def fdbe 2f96 f43d
00000090: a296 64be 4bf0 d8bd dfad 66bd 0c43 14be
000000a0: 3d59 e9be cba2 61be 0a51 8dbe 646a 1cbe
000000b0: 85a4 5d3e 987c 7dbe 095f f6be 63ca 03be
000000c0: 636a 9f3e c0a9 9d3e 2a9f 323e 2a3c 04bf
000000d0: e497 493f 27e8 66bd 6491 d93e f8cd 72be
000000e0: 4343 fe3e e28f c93d aae9 c03e e329 b1bd
000000f0: 5dd4 bcbe 5dbf a4be a63f 313e 9023 503e
00000100: 1965 62be ae85 17bf 8492 6ebd 7d2f b83d
00000110: 5d41 d1be 58ca ce3e 91cd 82bc ad41 3dbe
00000120: 1ffc 463d 91de 60be 10bb 59be bec2 6e3e
00000130: f4ea d7be d4a8 743e e4ed 153d 0580 833d
00000140: f375 24bb 9d98 45bd 7b2b 20bd 66bb 5abe
00000150: 7b80 d73d 6d6f 943e db4d 22be abab d23d
00000160: c09c 4bbe 5149 2abe d2d8 473e ecfa d63e
00000170: 349b 3c3e 8f0d 173e 61d1 9e3e 0c88 bd3e
00000180: c5cf 74bc 9b79 28be b6cf 943d 51c0 9ebe
00000190: 9be7 503c 5ce6 5f3e 4b77 2ebf fc6b b73d
000001a0: 10ab 673e 0077 97be b0e6 213f ed5c acbe
000001b0: 38c0 b93c a531 883e a68f 55be 7ba7 e1be
000001c0: f14c 8c3b ae83 5f3e f7cc 873d 46ff ef3e
000001d0: fcda e43e 4a13 97be 1930 77be b3e4 833e
000001e0: acd2 423e 0650 d6be f59f dfbd bb27 cebe
000001f0: a3bb 9e3e 6f5a 8ebd 85f8 f2bd bf05 c73d
00000200: 4c04 35be e80a 103f 4b09 3cbd 3b20 713e
00000210: 0ee9 063e 1e16 993e a69f 27be 6918 a93d
00000220: 2b48 4b3d 52f9 d73e 7b5e 8abe 46e8 debd
00000230: ab21 f13e 6e9d c03e fba7 b5be b6d3 323c
00000240: 32fb c0be 0fd2 0bbf ad6a 79be 114b 4d3d
00000250: 747e 6d3f 5a09 9b3d 86f1 aebd 2384 8c3d
00000260: ac7c 4e3e b0a2 98be ae8a 11bf 7a54 413c
00000270: 1136 3f3d 95f9 edbe 9b16 9f3c 431f 9a3d
00000280: 51fd 11be 6122 9fbd a288 5c3e 5711 b73e
00000290: 4569 983e a37e d13d 0764 e13d 1deb c13c
000002a0: a9ae 4bbf d560 a0be 188e 493f 81e7 5cbe
000002b0: d436 eebe 7cb5 f93e dc6a bd3e dba7 00bf
000002c0: 92fd 40bf bf8c 803e c3d1 fdbe d972 84be
000002d0: 33c6 b63e 93a6 0e3f 9ab0 59be 09bb d6be
000002e0: 1ab4 6d3e 90f9 c43e f95b 69bc 8b35 5b3c
000002f0: 0b25 04be 4ac4 65bc 6269 6dbe 7a5c 1c3e
00000300: cc22 83be 86cc 20be 4dc0 94be 8f5c 163e
00000310: b3cb 00be 808c 0e3f 5634 cfbe 7ed1 e33e
00000320: 430e 5bbe 8e85 12bf 1d70 25bf a80c d0bd
00000330: df4e 4bbf b8b2 883d 2734 0d3d 9f33 75be
00000340: a01b ac3e 7696 ac3d e580 cbbe 893a 74be
00000350: 9729 d7bd 1f64 083e 62eb c53e 7551 2b3e
00000360: ec86 87bb b1c9 ecbd d0b6 4c3e 4bbe 2f3f
00000370: 35e5 06bf 281a a53c 1e3c 223e 5be2 0d3f
00000380: 97c4 d3be ea9b 04be 4ef6 dcbe 86e8 1bbe
00000390: b1d6 873e a3c9 0b3e 9c1e a63e 62d2 a83e
000003a0: f563 38bf 7fbf 19be 0990 60be 4675 13bd
000003b0: abde a63d 8009 9abd 9a66 7fbe fbfb 093e
000003c0: 3da5 4f3e 0723 47be e94c 8a3d 4157 0cbf
000003d0: cd90 a9be 7f3c 5bbf cd93 a53e 31ef 85bf
000003e0: 14a0 f7be 62a6 a2be
0.47107437 -0.98056537 -0.27451685 0.34681404 -0.34198466 -0.025955863 -0.61945975 0.4352692
0.009608059 -0.21074215 -0.27135903 -0.0492057 0.26344898 0.03128334 -0.13201587 0.009969889
0.41759107 -0.37051922 -0.612261 -0.40770277 0.10843773 -0.1476344 0.15053332 -0.534964
0.032591645 -0.068796955 0.17563643 -0.29396912 -0.1792013 -0.03304932 0.10401235 0.0771802
0.12263251 -0.39395443 -0.49596873 0.11942708 -0.22323087 -0.10592707 -0.05631816 -0.14478701
-0.45575896 -0.22034757 -0.2760089 -0.1527496 0.2164479 -0.2475456 -0.4811938 -0.12870173
0.31135854 0.3079357 0.17443529 -0.51654303 0.7874739 -0.05637374 0.42493737 -0.23711383
0.49660692 0.098418966 0.37678272 -0.086505674 -0.3688077 -0.3217725 0.17309436 0.20326066
-0.22108878 -0.59188354 -0.058245197 0.08993433 -0.4087018 0.4038875 -0.015967162 -0.18482085
0.048580285 -0.21959902 -0.21262765 0.23316476 -0.42171443 0.23892528 0.036603823 0.06420902
-0.0025094717 -0.048241246 -0.039103966 -0.2136055 0.105225526 0.2899126 -0.15850012 0.10286649
-0.19884014 -0.1662953 0.19516304 0.41988313 0.1841858 0.14751266 0.31019118 0.37017858
-0.014942114 -0.16452639 0.0726618 -0.310061 0.012750532 0.21865219 -0.68150777 0.08956143
0.22623849 -0.29582977 0.63242626 -0.33664647 0.022674665 0.26600376 -0.20855579 -0.4407309
0.004281633 0.21827576 0.06630891 0.46874446 0.44698322 -0.29506904 -0.24139442 0.2576042
0.19025677 -0.41857928 -0.10919181 -0.40264687 0.3100253 -0.069508426 -0.118638076 0.09717893
-0.1767742 0.5626664 -0.0459073 0.23547451 0.13174841 0.29899687 -0.16369495 0.08256609
0.04962937 0.42182404 -0.27025208 -0.108841464 0.47096 0.3762011 -0.3547972 0.010914734
-0.37691647 -0.546174 -0.243571 0.050120417 0.9277108 0.07570143 -0.08542161 0.068611406
0.20164746 -0.2981162 -0.56852233 0.011799926 0.04668242 -0.46479478 0.019419959 0.07525494
-0.14256789 -0.07770229 0.21536496 0.35755417 0.29767814 0.10229232 0.11005407 0.023671681
-0.79563385 -0.31323877 0.7873244 -0.21572687 -0.46526206 0.48771274 0.3699559 -0.5025613
-0.7538692 0.2510738 -0.49574098 -0.25868872 0.3569809 0.5572292 -0.21258774 -0.41939571
0.23213235 0.3847165 -0.014243119 0.013379465 -0.12904756 -0.01402385 -0.23184732 0.15269652
-0.25612485 -0.1570302 -0.29052964 0.14683746 -0.12577705 0.55683136 -0.40469617 0.44495767
-0.21392159 -0.5723504 -0.64624196 -0.10158664 -0.7941722 0.06674713 0.034473564 -0.23945473
0.33614826 0.08427136 -0.39746776 -0.23850454 -0.105059795 0.13319443 0.38656145 0.16730292
-0.004135957 -0.11561907 0.19991612 0.6864974 -0.5269349 0.020154074 0.15843245 0.55423516
-0.41360924 -0.12950101 -0.43156666 -0.1522542 0.26530984 0.13651137 0.32445228 0.3297301
-0.7202752 -0.15014456 -0.21929945 -0.036000513 0.08147939 -0.07521343 -0.24941483 0.13475029
0.20277877 -0.19446956 0.06752951 -0.5482064 -0.33118287 -0.85639185 0.32339326 -1.046362
-0.48364317 -0.31767565

linear.bias f4 [10]
00000000: 70af 58bb 7cb0 593d d567 4ebd 3522 c5bd
00000010: c001 10bd 413d 98bd 0bd5 f73b 42eb 5fbd
00000020: caf2 1fbd df68 3cbd
-0.0033063553 0.053146824 -0.05039199 -0.09625665 -0.03515792 -0.07433558 0.0075632385 -0.05466772
-0.0390499 -0.04599845

exp_avg f4 [100, 5]
00000000: 719e 54b6 f880 db35 55b1 27b5 8938 03b2
00000010: c767 2534 565c b934 908e de35 046a 67b5
00000020: ce74 20b6 7c26 5634 e92d 9b35 d0a1 f836
00000030: c9cf 71b5 906c b336 dbe5 d8b5 cebd 1635
00000040: 88bf 5d35 ea39 d3b5 cc89 4433 c40b 0eb5
00000050: f2f3 4035 54f9 8f35 d4a8 05b3 5d74 ecb4
00000060: 1d97 1eb5 3215 e7b5 50ab 7bb5 9f1e 87b6
00000070: 5c41 d1b5 3069 9835 ecf6 13b6 4cb1 a234
00000080: 2952 49b5 6cfa a5b5 eda4 76b4 e3cb bcb6
00000090: 00c5 b636 9975 13b6 2b5e 33b6 b6eb 3336
000000a0: 8338 5e37 6564 8236 2f93 3a36 4ed6 2a36
000000b0: 2cc8 6136 70e5 d236 6c96 b7b5 a64e db36
000000c0: 6a4b ccb3 1b5c e333 f991 0338 63ce 2637
000000d0: 7541 0737 9e14 3437 cbed ec36 65ee 0537
000000e0: 6a5b b035 eeff ab36 2cc6 8a35 16fc 8835
000000f0: 174c d1b6 e173 9e35 f9bb a035 4022 d235
00000100: 2409 fdb3 e6cd ebb7 e738 8536 9639 01b7
00000110: 8ecb 8735 7f0e 0db5 8a50 f9b6 e179 2e36
00000120: cf12 c1b5 c2ac c935 8dd1 f035 bec7 c3b4
00000130: 6f36 e0b5 0159 abb3 1117 2535 9b74 2334
00000140: 4f7b d236 2327 be35 ea2c c8b5 348d 3eb5
00000150: 7f61 d8b5 af84 9637 8779 1035 fefe 8836
00000160: 88ec b435 2f62 2bb5 6ef9 0d36 03c9 a734
00000170: 417b ea35 9209 adb4 d54f 1834 be11 b9b6
00000180: de5a e235 33b8 79b6 496f 4c34 7ebf e6b6
00000190: 3019 5fb5 3634 2336 d8d2 adb5 a43c 2cb6
000001a0: 9332 5234 6cf2 2db6 0170 b535 1eae 4f34
000001b0: a872 b8b4 0887 17b6 8332 d233 2f06 6235
000001c0: 3848 ecb4 ad58 07b6 c79b 2834 5e3e 3736
000001d0: 60bf 97b5 73f3 2936 84bb 79b6 1c2a b035
000001e0: 0c08 96b5 2c96 c9b3 ead9 b7b3 0906 bcb4
000001f0: e5e5 1036 843e a8b6 f0cf 2636 29d4 9bb5
00000200: 25c3 9ab5 e649 a335 112c 6535 1f2e 2536
00000210: b914 a2b5 3c1a 6eb5 43e4 6935 efcd c035
00000220: 78a8 ce36 5fff c7b4 c5af d236 e316 d734
00000230: 2a9c 2536 67db c435 e2c6 23b6 9779 73b6
00000240: 6c12 85b4 4660 7935 e9bc b6b4 339f 7f34
00000250: 9297 0934 6560 afb5 08cc cdb5 ace0 17b5
00000260: 803f 5db6 1980 24b6 764a 2e35 1d32 93b6
00000270: 608f 7f35 4ed2 52b5 5006 a4b4 c80c 7035
00000280: 865f 0bb7 c827 6f36 5118 2eb6 95b4 47b6
00000290: 62d0 89b6 da0c 8537 dabd 6436 de29 9036
000002a0: 12c4 d134 a4ab 9fb3 6288 0e37 2acb 08b6
000002b0: 4f01 1137 3961 7236 c690 85b5 b3d0 3538
000002c0: 79a7 bf36 9e5a 4837 71b5 ad35 f39a dc35
000002d0: 47a1 0e37 6c52 6ab5 6f49 9b36 41ab 0f35
000002e0: 567f c034 e0d9 cdb6 f3fe 7034 5ae9 c235
000002f0: c7b6 f635 5b85 a7b4 10a2 28b8 c285 7636
00000300: 3f85 77b7 2147 f6b5 f48f 2fb6 0288 3fb7
00000310: 1bdb d235 ece0 76b6 739a fc35 fc36 0c36
00000320: a2e2 9eb5 ac3b b2b5 fe38 62b5 653a b234
00000330: 63ef 9c32 84d8 5937 8abc cb34 1009 1eb5
00000340: a895 15b2 9ea3 dbb4 0b1f 0438 e5ad ba35
00000350: aca8 d936 8687 a635 154b 90b5 6853 e136
00000360: 8fed 6735 d0fd 5736 2d54 5535 7603 42b5
00000370: 1b12 68b7 28f8 00b5 228f d9b6 2d69 9736
00000380: 4085 c3b5 c388 a4b5 f93c 6535 6d59 99b4
00000390: 8d92 51b6 c5cf 4136 47c5 17b6 ca09 3635
000003a0: bace 4733 3f27 ebb4 2e3a 2bb6 3c55 13b5
000003b0: f97b 5135 7615 c7b5 8a53 b5b4 ec48 9db5
000003c0: b3db bf36 8596 2fb4 7bb2 4336 164e a334
000003d0: 8aaa cdb4 f6fb a6b5 529e 4db4 f4e1 a4b4
000003e0: a504 c3b5 5b6a 3236 e80f 24b9 37a5 2738
000003f0: 516c b9b7 897e 9eb6 a7af 0138 0085 5d39
-3.1682687e-06 1.6354306e-06 -6.24704e-07 -7.638058e-09 1.5404576e-07 3.4526118e-07 1.658178e-06 -8.620848e-07
-2.3909847e-06 1.9944304e-07 1.1561762e-06 7.4098134e-06 -9.0081863e-07 5.347254e-06 -1.6160151e-06 5.6155557e-07
8.260763e-07 -1.573758e-06 4.576013e-08 -5.2916243e-07 7.188056e-07 1.0726894e-06 -3.1120024e-08 -4.404309e-07
-5.9079485e-07 -1.721701e-06 -9.375408e-07 -4.0268783e-06 -1.5590736e-06 1.1355496e-06 -2.2048434e-06 3.0303852e-07
-7.4997894e-07 -1.236634e-06 -2.2970535e-07 -5.626572e-06 5.4469565e-06 -2.1973158e-06 -2.6727892e-06 2.681028e-06
1.3245389e-05 3.8859894e-06 2.7801832e-06 2.5456716e-06 3.3644128e-06 6.2851977e-06 -1.3678341e-06 6.5358645e-06
-9.513208e-08 1.0587265e-07 3.136878e-05 9.942424e-06 8.061867e-06 1.0733636e-05 7.061031e-06 7.982923e-06
1.3139627e-06 5.1259913e-06 1.0339477e-06 1.0206156e-06 -6.2375434e-06 1.1805643e-06 1.1975636e-06 1.5656187e-06
-1.1782893e-07 -2.8110062e-05 3.970333e-06 -7.702407e-06 1.0117526e-06 -5.254769e-07 -7.4301543e-06 2.5998963e-06
-1.4385095e-06 1.5025946e-06 1.7942381e-06 -3.6466912e-07 -1.6705143e-06 -7.978998e-08 6.1500856e-07 1.5222979e-07
6.2728427e-06 1.4167493e-06 -1.4914233e-06 -7.0985993e-07 -1.6121629e-06 1.7943179e-05 5.3821026e-07 4.082801e-06
1.3479885e-06 -6.384534e-07 2.1155824e-06 3.125243e-07 1.747023e-06 -3.2230724e-07 1.4185146e-07 -5.515495e-06
1.6864758e-06 -3.721111e-06 1.9039466e-07 -6.876827e-06 -8.3110626e-07 2.4319284e-06 -1.2950868e-06 -2.5665295e-06
1.9576173e-07 -2.5920117e-06 1.3518148e-06 1.9341721e-07 -3.4356094e-07 -2.2579352e-06 9.788075e-08 8.420056e-07
-4.4010972e-07 -2.0168184e-06 1.5702891e-07 2.7305427e-06 -1.1306074e-06 2.5324669e-06 -3.721304e-06 1.3125277e-06
-1.1178213e-06 -9.387108e-08 -8.56124e-08 -3.502212e-07 2.1591488e-06 -5.014068e-06 2.4856963e-06 -1.1610147e-06
-1.1530689e-06 1.2165954e-06 8.5373273e-07 2.4613762e-06 -1.2075972e-06 -8.8700085e-07 8.713143e-07 1.4365049e-06
6.1588908e-06 -3.7252445e-07 6.27895e-06 4.0063523e-07 2.4677815e-06 1.4666992e-06 -2.4404658e-06 -3.6280596e-06
-2.4786584e-07 9.2899825e-07 -3.4037592e-07 2.3806642e-07 1.281426e-07 -1.306657e-06 -1.5333071e-06 -5.6578824e-07
-3.2968528e-06 -2.4512467e-06 6.4928406e-07 -4.3867753e-06 9.520354e-07 -7.853713e-07 -3.0551973e-07 8.9425566e-07
-8.307286e-06 3.563693e-06 -2.5942174e-06 -2.9758423e-06 -4.107177e-06 1.586082e-05 3.4085156e-06 4.2964084e-06
3.9071944e-07 -7.435236e-08 8.495614e-06 -2.0383836e-06 8.642978e-06 3.61174e-06 -9.951407e-07 4.334813e-05
5.71174e-06 1.1942027e-05 1.2942311e-06 1.6436373e-06 8.50141e-06 -8.729173e-07 4.6279088e-06 5.352086e-07
3.5855436e-07 -6.13484e-06 2.2444492e-07 1.4522041e-06 1.8381623e-06 -3.1203203e-07 -4.0205254e-05 3.6734714e-06
-1.4753371e-05 -1.834913e-06 -2.6160824e-06 -1.1416154e-05 1.5709987e-06 -3.6787778e-06 1.8820414e-06 2.089363e-06
-1.1837876e-06 -1.32794e-06 -8.4274495e-07 3.319757e-07 1.826965e-08 1.2984619e-05 3.7948877e-07 -5.8872774e-07
-8.706969e-09 -4.0910976e-07 3.1500163e-05 1.390869e-06 6.48674e-06 1.2407406e-06 -1.0750688e-06 6.7152323e-06
8.63999e-07 3.2185235e-06 7.9471175e-07 -7.227567e-07 -1.3832493e-05 -4.804483e-07 -6.483767e-06 4.5123948e-06
-1.4567413e-06 -1.2258755e-06 8.5397875e-07 -2.8563537e-07 -3.122873e-06 2.888018e-06 -2.2615584e-06 6.781453e-07
4.6521315e-08 -4.3800716e-07 -2.551485e-06 -5.48858e-07 7.803897e-07 -1.4832901e-06 -3.377466e-07 -1.1718635e-06
5.71782e-06 -1.6352904e-07 2.9161154e-06 3.041793e-07 -3.830831e-07 -1.2441294e-06 -1.914971e-07 -3.0711783e-07
-1.4529984e-06 2.6585974e-06 -0.00015646184 3.996977e-05 -2.2104157e-05 -4.7234976e-06 3.0919586e-05 0.00021125749

exp_avg_sq f4 [100, 5]
00000000: a0c3 db2f 0671 2a2e 3f55 152e 2580 3a2e
00000010: 910a 4d2f e8a9 1a2f b6c5 8f2e 04a6 d42e
00000020: d136 c32f d84b 4b2e 3f20 812f 8aa6 3a30
00000030: d404 c72e 9804 e42f 464d 102f cea5 272f
00000040: 9bf0 832e 4aa4 192e fc48 062e 8d35 1b2e
00000050: c5f9 7d2e 006d d62d 2e0e a92d 12e3 5a2d
00000060: 779b 3b2e 8c04 1130 ae94 3f2f d6d0 612f
00000070: cb76 1f2e 58f9 d62e b459 c02f b475 4c2f
00000080: e974 5b2e ae66 8c2e d883 e82d eb6d ac30
00000090: 3891 9430 5a45 ff30 adf9 2830 5d81 4830
000000a0: d05a e130 4fea 8e2f 988d 0d30 6add db2f
000000b0: ec4b 8b30 f5a5 0c31 42bd 362f b8d6 c030
000000c0: 87a7 5f2e dc41 fe2d 76df 3c32 daaa ce31
000000d0: 0bdc a631 4018 0e32 f20c 8f31 4ecf 6130
000000e0: f56e 872f a820 8330 ff7d 0f2f 1633 b12f
000000f0: 333c 9530 bf4b 002f 9774 1130 7b71 2b2f
00000100: 6527 b32e 4923 4132 9bc4 d130 12cf 6c31
00000110: 6ede 052f d992 b12e 8daf e530 fa8c c02e
00000120: 98ef 1630 7578 682e 8df5 b02e 64b2 3e2e
00000130: f382 fe2f 3a6d d42e 522e ba2d 2a70 662e
00000140: 71af 6230 cea9 1f30 95fe 742f 1f5f c22e
00000150: 9535 b62e d133 6631 3c9a 5a2e ba52 d230
00000160: a45c 552e 86c7 4e2f a8c1 0730 c509 842e
00000170: 586f b52d ef77 5830 adae 0130 286f 8d30
00000180: d97e 722e 695a 0531 8395 eb2d b3bf 8131
00000190: 6577 4d2f b602 e02e 8139 aa2e 037b 6b30
000001a0: 446c 292e ac56 2530 4c67 852f 71d3 152f
000001b0: dde5 192e 0c49 542f 0589 592f bd3a 8c2e
000001c0: 89a9 572e c339 e12f ae6d 842f dd47 f22f
000001d0: 3091 e72e dae1 a030 1b71 f030 c5c6 c430
000001e0: 7d55 1c2f 7ff6 382e 56e8 0b2f 588e a42e
000001f0: 56b0 c22e 333f d830 245c 3d2f cde3 ae2f
00000200: 023d 6b2f 5111 902e cbc4 2e30 1ca1 cc2f
00000210: a83b 4f2f a789 fd2e 8c02 5b2f e236 972f
00000220: 5a33 2830 17fa d92e 05a2 ec2f 5baf 7a2e
00000230: f7fd 0530 89dd 5f2f 2934 fe2e 916e 7f2f
00000240: e051 882e d5f2 622f ea6e 0d2f 191c 972e
00000250: cd02 9e2e 5765 872e 1988 2030 24ea 412f
00000260: 3087 7b2f 0ca7 7a2e 7120 f22e 6fce 4f30
00000270: 436c a92f b639 0f2f 43df b62e 08d1 d32e
00000280: fd79 2131 735e 0830 e748 1e31 f4c2 9b30
00000290: 3648 b730 d5a0 1931 af67 c62f 5aa7 4130
000002a0: 478c 8c2e 5787 232f 760e 6331 32ce a72f
000002b0: 31b6 2d31 3525 e12f e291 552e 9f46 ab32
000002c0: 3e6b 1a31 c574 3632 11d4 f42f 1481 1930
000002d0: b430 5930 6a96 a72f 133c 7430 4e3b d72e
000002e0: ba90 182f f476 af30 2496 302f 7512 6f30
000002f0: 1253 2b2f 6d1c 512f 7813 cd32 14c9 8530
00000300: 048b 4332 0ab8 5330 7f47 0830 1f13 8731
00000310: 93d1 822f 32bd c830 740f 4b2f c863 7c2f
00000320: 2dcd a12e 2d9b e42f 0f9c 5f2f d97a d32d
00000330: 46cb f42d 3607 6331 2fdd 6e30 1fa7 8430
00000340: 81c8 6d2f 031e 272f 195b 3432 d9e8 402f
00000350: 387d ce31 5139 3c30 c636 e72f 3f42 cc30
00000360: ffa2 ae2e 229a 052f c642 3530 0936 f62e
00000370: 21fb b331 772f df2f 097d ba31 4201 b62f
00000380: 3d5f 8c2f fc1e 9c2f aaa3 ad2e f759 382e
00000390: d88f 6730 61ab 5730 735b ed2f 2ac8 5e2f
000003a0: cd3a e02e a4e8 f52d a91f 492f 7619 a92f
000003b0: b209 a92e b132 1e2f f13e 122f 44db 4930
000003c0: b197 2a30 fa26 0a2f 83db a32f 51e0 402f
000003d0: 8d5e 542e c256 3a2f 8b7b 6b2e ba90 2b2f
000003e0: d51b 112f 85e7 062f 1e60 dd34 4605 1a33
000003f0: 7c60 9134 e79c 0533 d43b ce32 5093 6c35
3.9974868e-10 3.875391e-11 3.395439e-11 4.240532e-11 1.8648395e-10 1.4066581e-10 6.5380076e-11 9.670134e-11
3.5509243e-10 4.622422e-11 2.3487876e-10 6.790307e-10 9.05033e-11 4.1476222e-10 1.3124177e-10 1.5247467e-10
5.9999304e-11 3.493409e-11 3.0532896e-11 3.5290482e-11 5.774738e-11 2.4377389e-11 1.9219373e-11 1.2442285e-11
4.2656958e-11 5.2757154e-10 1.742417e-10 2.0537824e-10 3.6257924e-11 9.775886e-11 3.4988334e-10 1.8595508e-10
4.9898672e-11 6.3847025e-11 2.6433897e-11 1.2545888e-09 1.0809691e-09 1.8573403e-09 6.1472855e-10 7.294341e-10
1.6396715e-09 2.5996136e-10 5.149672e-10 3.9993192e-10 1.0135159e-09 2.0467017e-09 1.6620041e-10 1.4030865e-09
5.0853124e-11 2.8905704e-11 1.0993849e-08 6.0148126e-09 4.856252e-09 8.271002e-09 4.1633195e-09 8.214912e-10
2.4635197e-10 9.540786e-10 1.3050537e-10 3.223241e-10 1.0858286e-09 1.1668443e-10 5.2916377e-10 1.5592676e-10
8.1469755e-11 1.12421015e-08 1.526263e-09 3.4460226e-09 1.2175302e-10 8.0751135e-11 1.6711837e-09 8.7561916e-11
5.4910165e-10 5.285768e-11 8.047172e-11 4.335944e-11 4.6295376e-10 9.6600464e-11 2.1166322e-11 5.2395567e-11
8.246764e-10 5.808517e-10 2.2282116e-10 8.8389955e-11 8.28592e-11 3.349886e-09 4.970445e-11 1.5303023e-09
4.8512874e-11 1.8806476e-10 4.9387916e-10 6.0044004e-11 2.0626764e-11 7.875078e-10 4.7178156e-10 1.0290693e-09
5.5137093e-11 1.940544e-09 2.6782803e-11 3.776188e-09 1.8687059e-10 1.0186822e-10 7.74092e-11 8.566731e-10
3.852231e-11 6.014982e-10 2.4265956e-10 1.362659e-10 3.4992332e-11 1.9307239e-10 1.9784714e-10 6.376897e-11
4.9035918e-11 4.0968304e-10 2.4088592e-10 4.4070605e-10 1.0530454e-10 1.1705723e-09 1.7494445e-09 1.4317371e-09
1.4218489e-10 4.205569e-11 1.2724519e-10 7.483142e-11 8.853422e-11 1.5734031e-09 1.7222185e-10 3.1812278e-10
2.13948e-10 6.551438e-11 6.358049e-10 3.722186e-10 1.8847734e-10 1.152956e-10 1.9918839e-10 2.7505737e-10
6.119102e-10 9.9124424e-11 4.3043272e-10 5.6999166e-11 4.8746024e-10 2.0360437e-10 1.1559848e-10 2.3231396e-10
6.199108e-11 2.0640852e-10 1.286328e-10 6.871676e-11 7.185506e-11 6.157091e-11 5.840107e-10 1.7636431e-10
2.2876345e-10 5.6991786e-11 1.10106486e-10 7.559952e-10 3.0817845e-10 1.3026277e-10 8.316061e-11 9.6323005e-11
2.3497926e-09 4.961073e-10 2.3033466e-09 1.1333143e-09 1.3335526e-09 2.2355853e-09 3.6089662e-10 7.045081e-10
6.391381e-11 1.4872846e-10 3.3041068e-09 3.0523634e-10 2.5278377e-09 4.09537e-10 4.8560163e-11 1.9939135e-08
2.247091e-09 1.0620345e-08 4.4534024e-10 5.5844507e-10 7.901335e-10 3.0484e-10 8.8852053e-10 9.787603e-11
1.3875737e-10 1.2766734e-09 1.6060447e-10 8.697392e-10 1.5581872e-10 1.9018538e-10 2.3873994e-08 9.734173e-10
1.1382102e-08 7.702289e-10 4.9578114e-10 3.931191e-09 2.3795774e-10 1.4605688e-09 1.8468232e-10 2.2954716e-10
7.357879e-11 4.1583217e-10 2.0337175e-10 2.4042478e-11 2.782986e-11 3.3036947e-09 8.6898216e-10 9.651763e-10
2.1626258e-10 1.5199224e-10 1.0498092e-08 1.7545022e-10 6.009625e-09 6.8475453e-10 4.2057574e-10 1.4861782e-09
7.941558e-11 1.2151039e-10 6.5942307e-10 1.11963834e-10 5.2381357e-09 4.059719e-10 5.4275273e-09 3.31065e-10
2.5533523e-10 2.839825e-10 7.896202e-11 4.191666e-11 8.4241725e-10 7.846009e-10 4.3175027e-10 2.0261895e-10
1.0196786e-10 2.7956588e-11 1.8292091e-10 3.0759012e-10 7.6869525e-11 1.4388025e-10 1.3300984e-10 7.343497e-10
6.2061206e-10 1.2564874e-10 2.98055e-10 1.7541991e-10 4.8287197e-11 1.6947424e-10 5.3542542e-11 1.5603777e-10
1.3197561e-10 1.2269481e-10 4.1234392e-07 3.5860715e-08 2.7078556e-07 3.1109177e-08 2.4008763e-08 8.813122e-07

exp_avg f4 [100, 25]
00000000: fc5c 1b34 12e3 22b5 d325 3035 1bd0 a032
00000010: a50c 1fb3 2728 91b5 b384 9635 6ec8 0db5
00000020: e9d7 7db5 9cad 14b5 0979 d235 9f82 0235
00000030: 3f72 a1b4 beab ff34 9443 1135 937a 7633
00000040: 9658 2035 7293 2036 419f a435 af1b 5735
00000050: 6798 3834 f1b8 02b5 d7eb 09b5 e388 8f35
00000060: 99f6 12b5 f75c e434 fdac c2b5 0132 32b5
00000070: 1dda cc35 a67a b934 2bcc c2b5 9bc1 d333
00000080: 8b1f 0c34 b025 12b6 7701 16b6 9297 0136
00000090: 1fde ec35 6304 bdb5 e961 7335 ef6d eb34
000000a0: d631 2fb4 4093 c535 73a9 2736 36cf 9435
000000b0: 6c18 8e34 cde2 b034 a5b5 e1b5 d431 4f35
000000c0: 33a4 88b4 edeb 6eb5 3deb 5b35 1d51 25b6
000000d0: 98d5 9736 26a3 83b6 cfd7 bab5 f5ef 9436
000000e0: 3bba bab4 0abf 5eb5 ddba 8c36 1884 9d36
000000f0: eb75 96b6 ac4a d2b6 9fae 8536 b93d 76b6
00000100: 9eeb 57b6 2ecb 10b6 fdc8 52b6 2f35 b3b6
00000110: 9eec 0535 7c4c 8b36 f23a 6235 fd22 9536
00000120: ed40 e0b2 44d2 f3b5 5aed 1d36 d48b 0435
00000130: 72ad b7b2 eadd a833 28e9 4035 1d5d 16b5
00000140: 604e 7db5 cca2 0bb5 e637 8c34 cb92 b0b4
00000150: 13e2 c8b5 2835 0434 9ea7 5335 c30d a7b4
00000160: 5345 5835 6ef2 2e35 cc52 99b3 2f1f 5535
00000170: 53e1 d735 bc3f a8b4 9738 3832 69bd 3235
00000180: 214c 8db5 7b7f 02b5 3c7e 9435 2a46 46b5
00000190: 3903 8f34 14c1 e2b4 0c77 0434 d024 1435
000001a0: 9771 0934 177d a2b4 13d2 71b4 e6df 9c34
000001b0: 10b4 04b5 c632 e9b4 332e 6cb4 5494 8034
000001c0: f4d1 d7b2 02d8 9033 55b2 ffb3 8380 11b3
000001d0: 19f2 1735 301c 9734 f791 8634 3db2 7f34
000001e0: 54e0 9334 fbe7 4ab5 a2ff e234 0451 6833
000001f0: 29e7 5ab4 5ed9 9fb5 4b26 20b5 fef0 86b5
00000200: df37 1036 2dbe e5b5 ec16 4cb6 00d1 8634
00000210: 2df6 7a35 1f23 0bb6 e7af 90b6 13f7 3436
00000220: de54 5136 a53a 55b6 a7c5 8236 9788 5c36
00000230: 8016 eab4 b3da b235 714b ab36 915f fa34
00000240: 3955 7ab5 f57f d9b2 717b 41b6 89c8 41b1
00000250: 02a9 6935 a1f2 2ab6 ae08 b4b5 fac3 a235
00000260: b052 2fb5 6fee f535 1615 f534 7417 5fb6
00000270: 427a e135 55e6 be35 87a6 15b6 9bf8 3eb6
00000280: 04af f435 8b2c 4c36 32e6 2cb6 e87c 8236
00000290: 31e6 4936 d07b 9eb4 2221 2e35 3f9f 8d36
000002a0: a1c0 1a35 d3f5 09b6 d3ec a0b4 c7d5 4db6
000002b0: e779 9e34 38c9 11b4 635d a1b5 5388 97b6
000002c0: 4c8e 5535 ac99 4334 fcfc d935 8402 a1b5
000002d0: 36e6 e1b6 8839 b636 a06b 8436 6dfc c2b5
000002e0: d9ae 9cb6 b92f dfb4 ae19 4436 bddb 85b6
000002f0: 17ac 1737 7cef f536 3031 9bb5 5436 3e35
00000300: fafe d936 af0f cd34 1513 36b6 88f6 4db6
00000310: d941 9eb6 6ff5 6834 50c4 0c36 8923 a0b6
00000320: 257d 9436 24e8 28b5 c0cf 6236 b0a2 4fb6
00000330: 38ff b534 79e4 3437 b036 d3b6 274b afb5
00000340: dcdb 1437 6289 e836 b8d0 38b7 cb8d 15b7
00000350: 784e e336 78fc 28b7 1e99 f1b6 075e 26b5
00000360: 8def a7b6 bf52 7fb7 1fbd b0b6 542e 2b36
00000370: fc88 a4b3 2ed7 1437 c4ee 54b6 823d 13b6
00000380: 4f99 7936 2f55 e336 9f1e ccb3 cad6 9936
00000390: dc51 efb6 4fe9 2036 4b34 9037 f409 d6b6
000003a0: 422b b0b6 90a7 4b37 2329 8937 dc92 3db7
000003b0: 5b6f 76b7 c022 4f37 9234 aab7 b113 5db7
000003c0: 687c d535 87df 05b7 cf14 bfb7 5275 b0b4
000003d0: a2a4 0037 4798 e1b5 a5a7 8737 f596 15b6
000003e0: 7c23 21b6 d0ea f736 84d9 0737 4307 32b6
000003f0: 9b39 d236 0630 03b7 d0ba c935 09c8 b737
1.4469327e-07 -6.0680134e-07 6.562015e-07 1.8721087e-08 -3.7031572e-08 -1.0815028e-06 1.1214491e-06 -5.2818257e-07
-9.4564035e-07 -5.538693e-07 1.5681445e-06 4.861885e-07 -3.0071712e-07 4.762241e-07 5.411505e-07 5.738782e-08
5.9733554e-07 2.3927682e-06 1.2265301e-06 8.0134026e-07 1.7191779e-07 -4.86979e-07 -5.137967e-07 1.069417e-06
-5.4748085e-07 4.253595e-07 -1.4504473e-06 -6.638293e-07 1.5262664e-06 3.4548174e-07 -1.4513547e-06 9.86067e-08
1.3049991e-07 -2.1777632e-06 -2.2352594e-06 1.9310723e-06 1.7648016e-06 -1.4082874e-06 9.066703e-07 4.3852148e-07
-1.6316275e-07 1.4720499e-06 2.4983572e-06 1.1087166e-06 2.646733e-07 3.2947574e-07 -1.6816672e-06 7.718602e-07
-2.5451445e-07 -8.9005226e-07 8.1926174e-07 -2.463413e-06 4.5250163e-06 -3.923097e-06 -1.3920888e-06 4.4386784e-06
-3.47807e-07 -8.2979443e-07 4.194079e-06 4.6943424e-06 -4.484076e-06 -6.2671807e-06 3.9840374e-06 -3.6692784e-06
-3.2174644e-06 -2.1575938e-06 -3.140943e-06 -5.340807e-06 4.9890684e-07 4.1514268e-06 8.427734e-07 4.444619e-06
-2.6106557e-08 -1.8166106e-06 2.353298e-06 4.937731e-07 -2.1382878e-08 7.8634756e-08 7.186486e-07 -5.601485e-07
-9.4363895e-07 -5.2018436e-07 2.6117704e-07 -3.288936e-07 -1.4966957e-06 1.2312796e-07 7.884754e-07 -3.1116187e-07
8.056715e-07 6.517283e-07 -7.1396784e-08 7.939406e-07 1.6084326e-06 -3.133881e-07 1.0723077e-08 6.6585795e-07
-1.0527475e-06 -4.861428e-07 1.1063598e-06 -7.386285e-07 2.663817e-07 -4.2236263e-07 1.2336767e-07 5.5187866e-07
1.2800443e-07 -3.0265866e-07 -2.2521299e-07 2.9220172e-07 -4.943586e-07 -4.3436575e-07 -2.199602e-07 2.394978e-07
-2.512477e-08 6.744814e-08 -1.1906801e-07 -3.3877324e-08 5.660418e-07 2.814645e-07 2.5065648e-07 2.3813568e-07
2.7544104e-07 -7.558844e-07 4.2281778e-07 5.4090393e-08 -2.0386928e-07 -1.1909685e-06 -5.966037e-07 -1.0053916e-06
2.1490193e-06 -1.7117178e-06 -3.041171e-06 2.5111513e-07 9.349049e-07 -2.0733057e-06 -4.312012e-06 2.6965906e-06
3.1192826e-06 -3.177361e-06 3.8973117e-06 3.286206e-06 -4.3602267e-07 1.3325683e-06 5.1049797e-06 4.6635662e-07
-9.325627e-07 -2.5320313e-08 -2.8831093e-06 -2.8199187e-09 8.70452e-07 -2.5473203e-06 -1.3413571e-06 1.2126977e-06
-6.5312906e-07 1.8323316e-06 4.5650148e-07 -3.324324e-06 1.6799388e-06 1.4223139e-06 -2.2299662e-06 -2.8456914e-06
1.8230353e-06 3.0424296e-06 -2.5763989e-06 3.888843e-06 3.0085323e-06 -2.951988e-07 6.4868266e-07 4.220666e-06
5.764978e-07 -2.055768e-06 -2.9974635e-07 -3.0671815e-06 2.951849e-07 -1.357738e-07 -1.2022614e-06 -4.516021e-06
7.955575e-07 1.8216696e-07 1.6241388e-06 -1.1996167e-06 -6.7323226e-06 5.43072e-06 3.9464358e-06 -1.4527592e-06
-4.6695172e-06 -4.157171e-07 2.9221223e-06 -3.98929e-06 9.040369e-06 7.3294486e-06 -1.1562715e-06 7.0859573e-07
6.496787e-06 3.8195637e-07 -2.713122e-06 -3.069088e-06 -4.7164326e-06 2.1695972e-07 2.0975895e-06 -4.7725084e-06
4.4253125e-06 -6.2922686e-07 3.379755e-06 -3.09401e-06 3.3899573e-07 1.07820315e-05 -6.2946565e-06 -1.3060388e-06
8.872677e-06 6.9301323e-06 -1.1015851e-05 -8.914106e-06 6.774262e-06 -1.0072363e-05 -7.200185e-06 -6.1976647e-07
-5.004875e-06 -1.521845e-05 -5.2672253e-06 2.5507952e-06 -7.6617624e-08 8.871588e-06 -3.1729442e-06 -2.194051e-06
3.7193129e-06 6.775044e-06 -9.50506e-08 4.58476e-06 -7.1322847e-06 2.3977661e-06 1.7190489e-05 -6.3788557e-06
-5.2502446e-06 1.2138757e-05 1.6350828e-05 -1.1299471e-05 -1.468867e-05 1.2346252e-05 -2.029006e-05 -1.3177211e-05
1.5905944e-06 -7.979462e-06 -2.2778664e-05 -3.2867916e-07 7.667726e-06 -1.6808125e-06 1.617132e-05 -2.2290599e-06
-2.4011524e-06 7.3885094e-06 8.097271e-06 -2.6528294e-06 6.265194e-06 -7.81939e-06 1.5030037e-06 2.1908449e-05
